UNet2(
  (inc): inconv(
    (conv): one_conv(
      (conv): Sequential(
        (0): Conv2d(3, 64, kernel_size=(3, 3), stride=(1, 1), padding=(1, 1))
        (1): ReLU(inplace=True)
      )
    )
  )
  (down1): down(
    (mpconv): Sequential(
      (0): MaxPool2d(kernel_size=2, stride=2, padding=0, dilation=1, ceil_mode=False)
      (1): one_conv(
        (conv): Sequential(
          (0): Conv2d(64, 128, kernel_size=(3, 3), stride=(1, 1), padding=(1, 1))
          (1): ReLU(inplace=True)
        )
      )
    )
  )
  (down2): down(
    (mpconv): Sequential(
      (0): MaxPool2d(kernel_size=2, stride=2, padding=0, dilation=1, ceil_mode=False)
      (1): one_conv(
        (conv): Sequential(
          (0): Conv2d(128, 256, kernel_size=(3, 3), stride=(1, 1), padding=(1, 1))
          (1): ReLU(inplace=True)
        )
      )
    )
  )
  (down3): down(
    (mpconv): Sequential(
      (0): MaxPool2d(kernel_size=2, stride=2, padding=0, dilation=1, ceil_mode=False)
      (1): one_conv(
        (conv): Sequential(
          (0): Conv2d(256, 512, kernel_size=(3, 3), stride=(1, 1), padding=(1, 1))
          (1): ReLU(inplace=True)
        )
      )
    )
  )
  (down4): down(
    (mpconv): Sequential(
      (0): MaxPool2d(kernel_size=2, stride=2, padding=0, dilation=1, ceil_mode=False)
      (1): one_conv(
        (conv): Sequential(
          (0): Conv2d(512, 512, kernel_size=(3, 3), stride=(1, 1), padding=(1, 1))
          (1): ReLU(inplace=True)
        )
      )
    )
  )
  (up1): up(
    (up): ConvTranspose2d(512, 512, kernel_size=(2, 2), stride=(2, 2))
    (conv): one_conv(
      (conv): Sequential(
        (0): Conv2d(1024, 256, kernel_size=(3, 3), stride=(1, 1), padding=(1, 1))
        (1): ReLU(inplace=True)
      )
    )
  )
  (up2): up(
    (up): ConvTranspose2d(256, 256, kernel_size=(2, 2), stride=(2, 2))
    (conv): one_conv(
      (conv): Sequential(
        (0): Conv2d(512, 128, kernel_size=(3, 3), stride=(1, 1), padding=(1, 1))
        (1): ReLU(inplace=True)
      )
    )
  )
  (up3): up(
    (up): ConvTranspose2d(128, 128, kernel_size=(2, 2), stride=(2, 2))
    (conv): one_conv(
      (conv): Sequential(
        (0): Conv2d(256, 64, kernel_size=(3, 3), stride=(1, 1), padding=(1, 1))
        (1): ReLU(inplace=True)
      )
    )
  )
  (up4): up(
    (up): ConvTranspose2d(64, 64, kernel_size=(2, 2), stride=(2, 2))
    (conv): one_conv(
      (conv): Sequential(
        (0): Conv2d(128, 32, kernel_size=(3, 3), stride=(1, 1), padding=(1, 1))
        (1): ReLU(inplace=True)
      )
    )
  )
  (up5): up(
    (up): ConvTranspose2d(32, 32, kernel_size=(2, 2), stride=(2, 2))
    (conv): one_conv(
      (conv): Sequential(
        (0): Conv2d(64, 32, kernel_size=(3, 3), stride=(1, 1), padding=(1, 1))
        (1): ReLU(inplace=True)
      )
    )
  )
  (outc): outconv(
    (conv): Conv2d(32, 3, kernel_size=(1, 1), stride=(1, 1))
  )
  (up_s1): up_s(
    (upconv): Sequential(
      (0): ConvTranspose2d(64, 64, kernel_size=(2, 2), stride=(2, 2))
      (1): one_conv(
        (conv): Sequential(
          (0): Conv2d(64, 32, kernel_size=(3, 3), stride=(1, 1), padding=(1, 1))
          (1): ReLU(inplace=True)
        )
      )
    )
  )
)

===> Epoch 1 starts:
Training: Average Loss: 0.0488
Testing:  Average PSNR: 23.4977  SSIM: 0.7181

===> Epoch 2 starts:
Training: Average Loss: 0.0257
Testing:  Average PSNR: 22.9640  SSIM: 0.7565

===> Epoch 3 starts:
Training: Average Loss: 0.0221
Testing:  Average PSNR: 26.2649  SSIM: 0.8006
…
